…
WARNING ⚠️ Dataset 'coco8.yaml' images not found, missing path '/Users/krys.petrie/dev/datasets/coco8/images/val'
[KDownloading https://ultralytics.com/assets/coco8.zip to '/Users/krys.petrie/dev/datasets/coco8.zip': 100% ━━━━━━━━━━━━ 432.8KB 10.1MB/s 0.0s
[KUnzipping /Users/krys.petrie/dev/datasets/coco8.zip to /Users/krys.petrie/dev/datasets/coco8...: 100% ━━━━━━━━━━━━ 25/25 2.4Kfiles/s 0.0s
Dataset download success ✅ (0.3s), saved to [1m/Users/krys.petrie/dev/datasets[0m

Overriding model.yaml nc=4 with nc=80

                   from  n    params  module                                       arguments                     
  0                  -1  1       464  ultralytics.nn.modules.conv.Conv             [3, 16, 3, 2]                 
  1                  -1  1      4672  ultralytics.nn.modules.conv.Conv             [16, 32, 3, 2]                
  2                  -1  1      6640  ultralytics.nn.modules.block.C3k2            [32, 64, 1, False, 0.25]      
  3                  -1  1     36992  ultralytics.nn.modules.conv.Conv             [64, 64, 3, 2]                
  4                  -1  1     26080  ultralytics.nn.modules.block.C3k2            [64, 128, 1, False, 0.25]     
  5                  -1  1    147712  ultralytics.nn.modules.conv.Conv             [128, 128, 3, 2]              
  6                  -1  1     87040  ultralytics.nn.modules.block.C3k2            [128, 128, 1, True]           
  7                  -1  1    295424  ultralytics.nn.modules.conv.Conv             [128, 256, 3, 2]              
  8                  -1  1    346112  ultralytics.nn.modules.block.C3k2            [256, 256, 1, True]           
  9                  -1  1    164608  ultralytics.nn.modules.block.SPPF            [256, 256, 5, 3, True]        
 10                  -1  1    249728  ultralytics.nn.modules.block.C2PSA           [256, 256, 1]                 
 11                  -1  1         0  torch.nn.modules.upsampling.Upsample         [None, 2, 'nearest']          
 12             [-1, 6]  1         0  ultralytics.nn.modules.conv.Concat           [1]                           
 13                  -1  1    119808  ultralytics.nn.modules.block.C3k2            [384, 128, 1, True]           
 14                  -1  1         0  torch.nn.modules.upsampling.Upsample         [None, 2, 'nearest']          
 15             [-1, 4]  1         0  ultralytics.nn.modules.conv.Concat           [1]                           
 16                  -1  1     34304  ultralytics.nn.modules.block.C3k2            [256, 64, 1, True]            
 17                  -1  1     36992  ultralytics.nn.modules.conv.Conv             [64, 64, 3, 2]                
 18            [-1, 13]  1         0  ultralytics.nn.modules.conv.Concat           [1]                           
 19                  -1  1     95232  ultralytics.nn.modules.block.C3k2            [192, 128, 1, True]           
 20                  -1  1    147712  ultralytics.nn.modules.conv.Conv             [128, 128, 3, 2]              
 21            [-1, 10]  1         0  ultralytics.nn.modules.conv.Concat           [1]                           
 22                  -1  1    463104  ultralytics.nn.modules.block.C3k2            [384, 256, 1, True, 0.5, True]
 23        [16, 19, 22]  1    309656  ultralytics.nn.modules.head.Detect           [80, 1, True, [64, 128, 256]] 
YOLO26n summary: 260 layers, 2,572,280 parameters, 2,572,280 gradients, 6.1 GFLOPs

Transferred 606/708 items from pretrained weights
[34m[1mtrain: [0mFast image access ✅ (ping: 0.0±0.0 ms, read: 529.5±184.7 MB/s, size: 50.0 KB)
[K[34m[1mtrain: [0mScanning /Users/krys.petrie/dev/datasets/coco8/labels/train... 4 images, 0 backgrounds, 0 corrupt: 100% ━━━━━━━━━━━━ 4/4 331.9it/s 0.0s
…
